tutorials/qoa4ml/exported_models/tflite_model/LSTM_single_series.tflite (tflite, 34224 bytes, 9 tensors)

lstm_1/lstm_cell_1/bias f4 [128]
00000000: 9166 6dc0 30a4 60c0 f5d5 6ac0 ee03 60c0
00000010: 6312 72c0 edc3 6dc0 4ad5 73bf 9816 6fc0
00000020: 3970 6cc0 fe1c 6dc0 a01b 28bf 7b7a e8bf
00000030: 2b8f 6bc0 9717 73c0 a17a 50c0 5962 76c0
00000040: 4307 8fbf 455f 27be 8920 43bf 3f03 6dc0
00000050: 392a d8bf 53e4 6cc0 a309 0ec0 ef87 7bc0
00000060: e2d5 74c0 eb3b 71c0 ba6c 8ebf 194d 3ac0
00000070: add4 68c0 7a47 b9bf 6380 6cc0 7e03 6cc0
00000080: 283c 7fbe 9727 753e 3a5a 0dbf 4cb1 b9be
00000090: 7793 12bf 8c0b 97be 224b 133e e146 07bf
000000a0: 9f5c cfbe b118 03bf 98b9 d93d 4b7f 74bf
000000b0: 601c c1be 578a 6ebe 746e 1a3f bdbb 33bf
000000c0: 69cc 1dc0 6a2e a33e 6577 183f 88df 20bf
000000d0: 898f b63e 9b69 ebbe a299 92bd fab0 fdbe
000000e0: b34c 15bf 2a83 cbbe f5d6 703f 956d c0bf
000000f0: eca9 e4be 0ad0 d7be fbfc 4bbe 1312 c8be
00000100: ff19 483b cd21 ac3b 9f23 00bc a134 0d3c
00000110: f422 83bb 6e7b 17bc 143b 193f ad49 373b
00000120: e966 063c 8cf6 1eba 57fc a53e 944e 4ebf
00000130: eadc cdba f4fe 233c 96d8 adbb 0e80 a9bc
00000140: 7997 aabe b1d0 233f b9f0 a0be 6316 343c
00000150: 8bf7 643e 2046 b03b e77a 2bbf 0619 e43a
00000160: c701 43bc 7417 3b3b f434 5dbd 3e5b 1b3f
00000170: 3e16 063c c495 e33e 7855 fbb9 240f f2ba
00000180: ff33 60c0 3adf 58c0 51e9 6ac0 e25c 5bc0
00000190: 054e 68c0 943e 5cc0 8969 83be e1b5 5dc0
000001a0: 3893 6cc0 ccb1 66c0 6a97 5abf f150 f3bf
000001b0: 6e75 69c0 fb5b 58c0 5353 3ec0 1675 60c0
000001c0: d999 e1bf 15b4 ecbe 2178 8dbe 0f48 62c0
000001d0: 5ff1 a5bf 93c2 65c0 7ad2 08c0 7b09 6ac0
000001e0: 3091 58c0 8a7c 6fc0 ab17 7ebf 3a82 31c0
000001f0: 6096 66c0 43de 3ebf 0c93 63c0 ccfb 6ac0
-3.7093852 -3.5100212 -3.669309 -3.5002398 -3.7823722 -3.7150834 -0.9524733 -3.735754
-3.6943495 -3.7048945 -0.6566715 -1.8162378 -3.6806133 -3.7983148 -3.2574847 -3.8497527
-1.1174091 -0.16344936 -0.7622152 -3.7033231 -1.6887885 -3.7014358 -2.2193382 -3.9301717
-3.8255544 -3.769282 -1.1126931 -2.9109557 -3.6379807 -1.4474938 -3.695336 -3.6877131
-0.24925292 0.23940884 -0.552158 -0.3626808 -0.57256263 -0.29500997 0.1438413 -0.5284253
-0.40500352 -0.5120955 0.10631102 -0.95506734 -0.3771696 -0.2329496 0.6032479 -0.7020834
-2.4656012 0.3187135 0.5955718 -0.6284108 0.35656384 -0.45979008 -0.071582094 -0.49549085
-0.5832016 -0.39748508 0.94078 -1.5033442 -0.4466089 -0.4215091 -0.19920723 -0.3907629
0.0030533073 0.005253053 -0.007820993 0.008618505 -0.0040019695 -0.0092457365 0.5985577 0.0027967498
0.008203247 -0.000606396 0.32419083 -0.8058865 -0.0015706096 0.010009516 -0.00530536 -0.020690944
-0.3331869 0.6399031 -0.31433657 0.010991666 0.22360055 0.0053794533 -0.6698441 0.0017402477
-0.011902279 0.0028547915 -0.05400558 0.606861 0.008184014 0.444502 -0.0004793813 -0.0018467647
-3.5031736 -3.3886247 -3.6704905 -3.427544 -3.629762 -3.4413195 -0.25666454 -3.464226
-3.6964855 -3.6046019 -0.8538729 -1.9009076 -3.6477923 -3.380614 -2.9738357 -3.5071464
-1.7625076 -0.46231142 -0.27630714 -3.535648 -1.2964286 -3.5900009 -2.1378465 -3.6568286
-3.3838615 -3.7419763 -0.99254864 -2.7735734 -3.6029282 -0.74557894 -3.55585 -3.6716185

lstm/lstm_cell/bias f4 [128]
00000000: c8e0 00c0 ccd7 ffbf 2a9c ddbf 2332 333e
00000010: 9b0b bc3e 86ec 5ac0 0034 6cbf 89b2 5bc0
00000020: bdc5 e6bf de72 69c0 7ecb 44c0 3b58 38c0
00000030: 4705 adbf 4f39 47bf b6ba 3cc0 af47 c2bf
00000040: df9f 6cc0 675e 56bf e211 19c0 97dc 9abf
00000050: e08c e2be e1a1 55c0 a2d1 68c0 ca9c 07c0
00000060: e81b 00c0 43c5 0dc0 5650 d2bf 303a 68bf
00000070: 0b33 afbf ae0c 3dbf 92fd cebf 4069 10c0
00000080: efba 36bf 7adf d0bf 5430 30bf a11f 84bf
00000090: 44f3 c93f 5ab7 e6be 65a9 e7bf 7542 b9be
000000a0: d175 c5bf a476 8ebe 68f5 303e 0337 14bf
000000b0: 81c1 27bf 232d ef3f f317 67be 1955 61bf
000000c0: ae23 98be e297 7cbf 7032 46bf 0e71 7bbd
000000d0: 9e57 c63f c1f5 a0be 6623 b9bd c961 37bf
000000e0: 9103 87bf 8b4c eebf 242d 413f fbfb e43f
000000f0: 74d2 13c0 e787 c73f 5203 3ebf 9336 13bf
00000100: a2a7 7ebe beef e63d 9ec6 863e 8a9b a7be
00000110: 5183 a8be f7b2 253e d49c 18bf 9eb9 41be
00000120: 85e1 223e 884a e9bd 034a 5ebe a072 6ebe
00000130: 0020 a73e 6c72 97be fe0e 4a3e 4c5a e1be
00000140: f508 e4bd 313b acbe 088d b7bd a0a8 82be
00000150: 18b6 a3be f1b8 3dbe 1423 d73d 921f 683e
00000160: d015 93be 84b8 dc3d 979e 8a3e 6098 93be
00000170: e8ea 0c3f d05b 973e 3d2e 9abe 756b 7ebe
00000180: 20f3 fcbf df10 0fc0 afb4 eabf 3593 1a3e
00000190: 6449 033f 8bd2 56c0 12d6 85bf d4fb 5cc0
000001a0: 577e debf c199 6ac0 91b4 42c0 a833 38c0
000001b0: e364 a0bf f570 35bf d15e 3dc0 eb02 c4bf
000001c0: bf71 69c0 fac7 55bf 4c20 19c0 e3a0 8dbf
000001d0: 9cf0 aebe e006 53c0 3dc5 64c0 99d0 0fc0
000001e0: 0ec6 f6bf 5dea 10c0 d39b cbbf 6aa7 5bbf
000001f0: b4fb e3bf f500 29bf 541f d8bf 38a4 11c0
-2.0137196 -1.9987731 -1.7313282 0.17499594 0.36727604 -3.4206862 -0.92266846 -3.432772
-1.8029095 -3.647636 -3.0749202 -2.8803852 -1.3517236 -0.7782182 -2.948896 -1.5178126
-3.6972578 -0.83737797 -2.3917165 -1.2098569 -0.44248104 -3.3380053 -3.637795 -2.1189446
-2.0017033 -2.215165 -1.6430767 -0.9071379 -1.3687452 -0.7384747 -1.6171134 -2.256424
-0.7137899 -1.63182 -0.6882374 -1.0322152 1.5777364 -0.4506176 -1.809857 -0.36183515
-1.542658 -0.2782489 0.17281115 -0.5789644 -0.6552964 1.868565 -0.2256773 -0.88020474
-0.2971472 -0.98669255 -0.7742071 -0.061387114 1.5495489 -0.31437495 -0.09039955 -0.71633583
-1.0547963 -1.8617109 0.75459504 1.7889398 -2.30972 1.5588349 -0.74223816 -0.5750515
-0.24868634 0.11276196 0.26323408 -0.32735854 -0.32912686 0.16181551 -0.596143 -0.18918464
0.15906341 -0.11391169 -0.2170792 -0.23285913 0.32641602 -0.29579484 0.19732282 -0.44014204
-0.11134521 -0.3363891 -0.089624465 -0.25519276 -0.31974864 -0.18527581 0.105047375 0.22668293
-0.2872758 0.10777381 0.2707412 -0.2882719 0.5504594 0.29562235 -0.30113402 -0.24845679
-1.9761696 -2.2354047 -1.833639 0.15095218 0.5128386 -3.3566005 -1.0455954 -3.4528704
-1.7382306 -3.6656344 -3.042271 -2.8781528 -1.2530788 -0.70875484 -2.9589121 -1.531339
-3.6475675 -0.83508265 -2.3925962 -1.1064724 -0.34167945 -3.2972946 -3.5745385 -2.2471068
-1.9279191 -2.2643044 -1.5906929 -0.8580233 -1.7811189 -0.66017085 -1.688456 -2.275648

std.constant7 f4 [1, 32]
00000000: 0126 91bb 3a74 44ba 9236 0bbc 4e58 233c
00000010: 48e8 0ebb d598 efbb e798 cf3e 881e 023c
00000020: a453 16bb 1533 c3bb ac71 e6be 2229 aabd
00000030: ddd1 0abc ab82 df3b 95fc d7bc 0c06 a6bc
00000040: a9ff b0bc 0e85 1d3f c59b 2f3f ea9d 753c
00000050: 33c7 8e3e 6271 e53b 55a0 2f3d 369d 013b
00000060: 782f a43a dea5 e23a a7cc cc3e d370 143c
00000070: 8054 f43b 2a65 a0bd 4df4 2cbb 5884 003c
-0.0044295792 -0.0007494126 -0.008496897 0.009969784 -0.002180593 -0.00731192 0.40546343 0.0079418495
-0.0022938037 -0.005957017 -0.450086 -0.08308627 -0.008472887 0.0068209968 -0.026365558 -0.020266555
-0.021606283 0.6153115 0.6859706 0.014991263 0.27886352 0.0070020417 0.042877514 0.0019777543
0.0012526354 0.0017291864 0.39999887 0.0090601025 0.0074563622 -0.078317955 -0.0026390732 0.007844053

lstm/lstm_cell/bias1 f4 [128]
00000000: c8e0 00c0 ccd7 ffbf 2a9c ddbf 2332 333e
00000010: 9b0b bc3e 86ec 5ac0 0034 6cbf 89b2 5bc0
00000020: bdc5 e6bf de72 69c0 7ecb 44c0 3b58 38c0
00000030: 4705 adbf 4f39 47bf b6ba 3cc0 af47 c2bf
00000040: df9f 6cc0 675e 56bf e211 19c0 97dc 9abf
00000050: e08c e2be e1a1 55c0 a2d1 68c0 ca9c 07c0
00000060: e81b 00c0 43c5 0dc0 5650 d2bf 303a 68bf
00000070: 0b33 afbf ae0c 3dbf 92fd cebf 4069 10c0
00000080: efba 36bf 7adf d0bf 5430 30bf a11f 84bf
00000090: 44f3 c93f 5ab7 e6be 65a9 e7bf 7542 b9be
000000a0: d175 c5bf a476 8ebe 68f5 303e 0337 14bf
000000b0: 81c1 27bf 232d ef3f f317 67be 1955 61bf
000000c0: ae23 98be e297 7cbf 7032 46bf 0e71 7bbd
000000d0: 9e57 c63f c1f5 a0be 6623 b9bd c961 37bf
000000e0: 9103 87bf 8b4c eebf 242d 413f fbfb e43f
000000f0: 74d2 13c0 e787 c73f 5203 3ebf 9336 13bf
00000100: a2a7 7ebe beef e63d 9ec6 863e 8a9b a7be
00000110: 5183 a8be f7b2 253e d49c 18bf 9eb9 41be
00000120: 85e1 223e 884a e9bd 034a 5ebe a072 6ebe
00000130: 0020 a73e 6c72 97be fe0e 4a3e 4c5a e1be
00000140: f508 e4bd 313b acbe 088d b7bd a0a8 82be
00000150: 18b6 a3be f1b8 3dbe 1423 d73d 921f 683e
00000160: d015 93be 84b8 dc3d 979e 8a3e 6098 93be
00000170: e8ea 0c3f d05b 973e 3d2e 9abe 756b 7ebe
00000180: 20f3 fcbf df10 0fc0 afb4 eabf 3593 1a3e
00000190: 6449 033f 8bd2 56c0 12d6 85bf d4fb 5cc0
000001a0: 577e debf c199 6ac0 91b4 42c0 a833 38c0
000001b0: e364 a0bf f570 35bf d15e 3dc0 eb02 c4bf
000001c0: bf71 69c0 fac7 55bf 4c20 19c0 e3a0 8dbf
000001d0: 9cf0 aebe e006 53c0 3dc5 64c0 99d0 0fc0
000001e0: 0ec6 f6bf 5dea 10c0 d39b cbbf 6aa7 5bbf
000001f0: b4fb e3bf f500 29bf 541f d8bf 38a4 11c0
-2.0137196 -1.9987731 -1.7313282 0.17499594 0.36727604 -3.4206862 -0.92266846 -3.432772
-1.8029095 -3.647636 -3.0749202 -2.8803852 -1.3517236 -0.7782182 -2.948896 -1.5178126
-3.6972578 -0.83737797 -2.3917165 -1.2098569 -0.44248104 -3.3380053 -3.637795 -2.1189446
-2.0017033 -2.215165 -1.6430767 -0.9071379 -1.3687452 -0.7384747 -1.6171134 -2.256424
-0.7137899 -1.63182 -0.6882374 -1.0322152 1.5777364 -0.4506176 -1.809857 -0.36183515
-1.542658 -0.2782489 0.17281115 -0.5789644 -0.6552964 1.868565 -0.2256773 -0.88020474
-0.2971472 -0.98669255 -0.7742071 -0.061387114 1.5495489 -0.31437495 -0.09039955 -0.71633583
-1.0547963 -1.8617109 0.75459504 1.7889398 -2.30972 1.5588349 -0.74223816 -0.5750515
-0.24868634 0.11276196 0.26323408 -0.32735854 -0.32912686 0.16181551 -0.596143 -0.18918464
0.15906341 -0.11391169 -0.2170792 -0.23285913 0.32641602 -0.29579484 0.19732282 -0.44014204
-0.11134521 -0.3363891 -0.089624465 -0.25519276 -0.31974864 -0.18527581 0.105047375 0.22668293
-0.2872758 0.10777381 0.2707412 -0.2882719 0.5504594 0.29562235 -0.30113402 -0.24845679
-1.9761696 -2.2354047 -1.833639 0.15095218 0.5128386 -3.3566005 -1.0455954 -3.4528704
-1.7382306 -3.6656344 -3.042271 -2.8781528 -1.2530788 -0.70875484 -2.9589121 -1.531339
-3.6475675 -0.83508265 -2.3925962 -1.1064724 -0.34167945 -3.2972946 -3.5745385 -2.2471068
-1.9279191 -2.2643044 -1.5906929 -0.8580233 -1.7811189 -0.66017085 -1.688456 -2.275648

std.constant12 i1 [128, 32] scale=0.042321973 zero_point=0
00000000: 02f8 ef0c fbfa 06f7 fc05 06f0 06e6 faf1
00000010: 0105 e823 0200 0aef f4f9 02ea 2a06 fdf8
00000020: 18fb de40 0a02 0af8 edff 0907 df01 f601
00000030: fe31 ff22 1304 0fe4 00f7 eefe 03eb 1611
00000040: f801 f610 fafe 0ee5 f404 f6dc 0ddf fee6
00000050: 02fd d822 f9f5 09ee f5f8 09ea 2a0b eff3
00000060: e43d 0d05 06f1 c6b7 f0fb bfae 14d2 0d8d
00000070: 06f2 8103 ece4 fef2 ef24 15e7 3319 cbe0
00000080: f718 0ee9 ed01 ec0d 1efb 0f0e 06f4 08f5
00000090: f9f3 11ef f4f8 0c18 ea18 fbef ee08 fdfd
000000a0: f2fc 0cf9 f30b 050e 16fa 1915 0d05 0a05
000000b0: f4ec 1d19 00f8 0c15 fb04 03f8 ed09 00f6
000000c0: 0215 f4f9 18f7 e4f2 04ff 07fb 060e fade
000000d0: 0104 e620 19fe 02f0 e30d f206 03fb f2fd
000000e0: f3f8 0fe2 f106 0a20 1e04 2623 0e08 0706
000000f0: fde9 201e 03fd 0316 f9fe fefb ea09 02fc
0.084643945 -0.33857578 -0.71947354 0.50786364 -0.21160987 -0.25393182 0.25393182 -0.38089776
-0.16928789 0.21160987 0.25393182 -0.67715156 0.25393182 -1.1003712 -0.25393182 -0.6348296
0.042321973 0.21160987 -1.0157273 1.481269 0.084643945 0.0 0.42321974 -0.71947354
-0.50786364 -0.2962538 0.084643945 -0.9310834 1.7775228 0.25393182 -0.12696591 -0.33857578
1.0157273 -0.21160987 -1.4389471 2.7086062 0.42321974 0.084643945 0.42321974 -0.33857578
-0.8041175 -0.042321973 0.38089776 0.2962538 -1.396625 0.042321973 -0.42321974 0.042321973
-0.084643945 2.0737767 -0.042321973 1.4389471 0.8041175 0.16928789 0.6348296 -1.1850152
0.0 -0.38089776 -0.7617955 -0.084643945 0.12696591 -0.8887614 0.9310834 0.71947354
-0.33857578 0.042321973 -0.42321974 0.67715156 -0.25393182 -0.084643945 0.5925076 -1.1426933
-0.50786364 0.16928789 -0.42321974 -1.523591 0.5501856 -1.396625 -0.084643945 -1.1003712
0.084643945 -0.12696591 -1.692879 1.4389471 -0.2962538 -0.4655417 0.38089776 -0.7617955
-0.4655417 -0.33857578 0.38089776 -0.9310834 1.7775228 0.4655417 -0.71947354 -0.5501856
-1.1850152 2.5816402 0.5501856 0.21160987 0.25393182 -0.6348296 -2.4546745 -3.089504
-0.67715156 -0.21160987 -2.7509282 -3.4704018 0.8464395 -1.9468107 0.5501856 -4.867027
0.25393182 -0.5925076 -5.3748903 0.12696591 -0.8464395 -1.1850152 -0.084643945 -0.5925076
-0.71947354 1.523591 0.8887614 -1.0580493 2.1584206 1.0580493 -2.2430646 -1.3543031
-0.38089776 1.0157273 0.5925076 -0.97340536 -0.8041175 0.042321973 -0.8464395 0.5501856
1.2696592 -0.21160987 0.6348296 0.5925076 0.25393182 -0.50786364 0.33857578 -0.4655417
-0.2962538 -0.5501856 0.71947354 -0.71947354 -0.50786364 -0.33857578 0.50786364 1.0157273
-0.9310834 1.0157273 -0.21160987 -0.71947354 -0.7617955 0.33857578 -0.12696591 -0.12696591
-0.5925076 -0.16928789 0.50786364 -0.2962538 -0.5501856 0.4655417 0.21160987 0.5925076
0.9310834 -0.25393182 1.0580493 0.8887614 0.5501856 0.21160987 0.42321974 0.21160987
-0.50786364 -0.8464395 1.2273372 1.0580493 0.0 -0.33857578 0.50786364 0.8887614
-0.21160987 0.16928789 0.12696591 -0.33857578 -0.8041175 0.38089776 0.0 -0.42321974
0.084643945 0.8887614 -0.50786364 -0.2962538 1.0157273 -0.38089776 -1.1850152 -0.5925076
0.16928789 -0.042321973 0.2962538 -0.21160987 0.25393182 0.5925076 -0.25393182 -1.4389471
0.042321973 0.16928789 -1.1003712 1.3543031 1.0580493 -0.084643945 0.084643945 -0.67715156
-1.2273372 0.5501856 -0.5925076 0.25393182 0.12696591 -0.21160987 -0.5925076 -0.12696591
-0.5501856 -0.33857578 0.6348296 -1.2696592 -0.6348296 0.25393182 0.42321974 1.3543031
1.2696592 0.16928789 1.608235 1.481269 0.5925076 0.33857578 0.2962538 0.25393182
-0.12696591 -0.97340536 1.3543031 1.2696592 0.12696591 -0.12696591 0.12696591 0.9310834
-0.2962538 -0.084643945 -0.084643945 -0.21160987 -0.9310834 0.38089776 0.084643945 -0.16928789

std.constant13 f4 [128, 1]
00000000: 1b9b 80bf 6d88 7140 24bf 263f 5dc1 e53f
00000010: eedb aabf 8fb2 423f 0a5c d640 cf84 133f
00000020: 6d38 4240 a7ce 8d3f d1a2 0840 22a4 063f
00000030: a65c 1cc0 81e7 cdbe a998 733f 839c aa40
00000040: 601b 043f a115 f8bf 23c8 5940 a71a 6940
00000050: 8c2f 87be 6661 583d 2aa6 973e 6b68 113f
00000060: 9937 bebf 410c 8740 2996 3f3e fd49 49bf
00000070: 33b7 50c0 ff8a b6be c79e 37bf f965 4bbf
00000080: 8b65 913f e079 963f 23d9 d7be f9b5 a6bf
00000090: ca88 bdbf db1b 023f f1bd 95be 0baa 6cbf
000000a0: 8f70 5abf f705 993e 2fe2 3abf 7110 743c
000000b0: f7ac 8e3f 2f71 d9bf 71ef 743f 1f0e a43f
000000c0: deee 0b3f 4221 fc3e f2a0 a53f 6062 18be
000000d0: f71a c2bf a256 d13e 55b3 343b a30b 78bf
000000e0: 0b07 99bf 3bfb 7a3e 5e37 2bbf 109f cabf
000000f0: 501f 16be 507a 9fbf 2db2 753e fc17 833f
00000100: e4c1 a5bf 9730 843f 7dd5 b93f a07f 04c0
00000110: 9fbb 1fc0 ef87 923f 5f79 41c0 0450 49bf
00000120: 4ff8 f63f 3915 21bf 7e2d 89bf 7383 77bf
00000130: ed84 d13f 8824 f8bf 3715 923f ebf7 4bbf
00000140: 777e 46bf bd68 ddbf 4471 4140 f6ad 68c0
00000150: ac50 0bc0 245f 70bf f7ee 2a3f 50c7 b43f
00000160: 1480 d5bf 99a0 c33f d29f d43f a8e0 f8bf
00000170: dd8e 0940 ae35 0340 2a69 b6bf 770b 9ebf
00000180: 8f63 15bf 50da 5e40 ecae b1be 8010 56bf
00000190: 872d 90bf 7dde a83f 69ac d640 5f90 893d
000001a0: 85ff 1340 2d89 603f 9ad8 ac3f 9f14 c0bd
000001b0: f2e7 eebf 0043 8ebd c66c 7d3f 321d 9e40
000001c0: 649d 5c3f 5777 e8bf d70e 6540 b803 4940
000001d0: 87ba 58be 0fda a03e 014c 363f 17e1 9cbe
000001e0: c1d1 9ebf b55d 8040 31ae cb3e 5b27 4abf
000001f0: b0d4 72c0 1276 a0be effb a9bf 2e0b 61bf
-1.0047334 3.7739518 0.6513541 1.7949635 -1.3348367 0.7605371 6.698735 0.57624525
3.034694 1.107869 2.1349375 0.52594197 -2.4431548 -0.40215686 0.95154816 5.3316054
0.5160427 -1.9381601 3.4028404 3.6422517 -0.26403463 0.05282726 0.2961896 0.56799954
-1.4860717 4.220246 0.18709625 -0.7862852 -3.2611816 -0.3565292 -0.7172665 -0.7945247
1.1359113 1.1755943 -0.4215785 -1.3024284 -1.480737 0.50823754 -0.29246476 -0.92446965
-0.85328 0.29887363 -0.7300138 0.014896498 1.1146535 -1.6987666 0.9567786 1.281681
0.5466136 0.49244124 1.2939742 -0.14881277 -1.5164479 0.40886408 0.002757271 -0.96892756
-1.1955274 0.245099 -0.6688136 -1.5829792 -0.14660382 -1.2459202 0.2399375 1.0241694
-1.2949796 1.0327328 1.4518276 -2.0702896 -2.4958265 1.1447734 -3.023033 -0.7863772
1.9294528 -0.6292301 -1.0717008 -0.9668495 1.6368691 -1.9386148 1.1412724 -0.7967517
-0.7753672 -1.7297589 3.0225382 -3.6356177 -2.1767988 -0.93895173 0.6677088 1.4123325
-1.6679711 1.5283386 1.6611273 -1.944356 2.1493447 2.0501513 -1.4250844 -1.2347249
-0.5835504 3.4820747 -0.34703767 -0.83618927 -1.1263894 1.3192898 6.708546 0.0671699
2.3124707 0.87709314 1.3503602 -0.09378933 -1.8664534 -0.06946373 0.989941 4.941064
0.8617766 -1.816142 3.5790308 3.140852 -0.21164905 0.31416366 0.7120972 -0.3064048
-1.2407762 4.011439 0.39781335 -0.789663 -3.7942314 -0.3134008 -1.3280009 -0.87907684

lstm_1/lstm_cell_1/bias1 f4 [128]
00000000: 9166 6dc0 30a4 60c0 f5d5 6ac0 ee03 60c0
00000010: 6312 72c0 edc3 6dc0 4ad5 73bf 9816 6fc0
00000020: 3970 6cc0 fe1c 6dc0 a01b 28bf 7b7a e8bf
00000030: 2b8f 6bc0 9717 73c0 a17a 50c0 5962 76c0
00000040: 4307 8fbf 455f 27be 8920 43bf 3f03 6dc0
00000050: 392a d8bf 53e4 6cc0 a309 0ec0 ef87 7bc0
00000060: e2d5 74c0 eb3b 71c0 ba6c 8ebf 194d 3ac0
00000070: add4 68c0 7a47 b9bf 6380 6cc0 7e03 6cc0
00000080: 283c 7fbe 9727 753e 3a5a 0dbf 4cb1 b9be
00000090: 7793 12bf 8c0b 97be 224b 133e e146 07bf
000000a0: 9f5c cfbe b118 03bf 98b9 d93d 4b7f 74bf
000000b0: 601c c1be 578a 6ebe 746e 1a3f bdbb 33bf
000000c0: 69cc 1dc0 6a2e a33e 6577 183f 88df 20bf
000000d0: 898f b63e 9b69 ebbe a299 92bd fab0 fdbe
000000e0: b34c 15bf 2a83 cbbe f5d6 703f 956d c0bf
000000f0: eca9 e4be 0ad0 d7be fbfc 4bbe 1312 c8be
00000100: ff19 483b cd21 ac3b 9f23 00bc a134 0d3c
00000110: f422 83bb 6e7b 17bc 143b 193f ad49 373b
00000120: e966 063c 8cf6 1eba 57fc a53e 944e 4ebf
00000130: eadc cdba f4fe 233c 96d8 adbb 0e80 a9bc
00000140: 7997 aabe b1d0 233f b9f0 a0be 6316 343c
00000150: 8bf7 643e 2046 b03b e77a 2bbf 0619 e43a
00000160: c701 43bc 7417 3b3b f434 5dbd 3e5b 1b3f
00000170: 3e16 063c c495 e33e 7855 fbb9 240f f2ba
00000180: ff33 60c0 3adf 58c0 51e9 6ac0 e25c 5bc0
00000190: 054e 68c0 943e 5cc0 8969 83be e1b5 5dc0
000001a0: 3893 6cc0 ccb1 66c0 6a97 5abf f150 f3bf
000001b0: 6e75 69c0 fb5b 58c0 5353 3ec0 1675 60c0
000001c0: d999 e1bf 15b4 ecbe 2178 8dbe 0f48 62c0
000001d0: 5ff1 a5bf 93c2 65c0 7ad2 08c0 7b09 6ac0
000001e0: 3091 58c0 8a7c 6fc0 ab17 7ebf 3a82 31c0
000001f0: 6096 66c0 43de 3ebf 0c93 63c0 ccfb 6ac0
-3.7093852 -3.5100212 -3.669309 -3.5002398 -3.7823722 -3.7150834 -0.9524733 -3.735754
-3.6943495 -3.7048945 -0.6566715 -1.8162378 -3.6806133 -3.7983148 -3.2574847 -3.8497527
-1.1174091 -0.16344936 -0.7622152 -3.7033231 -1.6887885 -3.7014358 -2.2193382 -3.9301717
-3.8255544 -3.769282 -1.1126931 -2.9109557 -3.6379807 -1.4474938 -3.695336 -3.6877131
-0.24925292 0.23940884 -0.552158 -0.3626808 -0.57256263 -0.29500997 0.1438413 -0.5284253
-0.40500352 -0.5120955 0.10631102 -0.95506734 -0.3771696 -0.2329496 0.6032479 -0.7020834
-2.4656012 0.3187135 0.5955718 -0.6284108 0.35656384 -0.45979008 -0.071582094 -0.49549085
-0.5832016 -0.39748508 0.94078 -1.5033442 -0.4466089 -0.4215091 -0.19920723 -0.3907629
0.0030533073 0.005253053 -0.007820993 0.008618505 -0.0040019695 -0.0092457365 0.5985577 0.0027967498
0.008203247 -0.000606396 0.32419083 -0.8058865 -0.0015706096 0.010009516 -0.00530536 -0.020690944
-0.3331869 0.6399031 -0.31433657 0.010991666 0.22360055 0.0053794533 -0.6698441 0.0017402477
-0.011902279 0.0028547915 -0.05400558 0.606861 0.008184014 0.444502 -0.0004793813 -0.0018467647
-3.5031736 -3.3886247 -3.6704905 -3.427544 -3.629762 -3.4413195 -0.25666454 -3.464226
-3.6964855 -3.6046019 -0.8538729 -1.9009076 -3.6477923 -3.380614 -2.9738357 -3.5071464
-1.7625076 -0.46231142 -0.27630714 -3.535648 -1.2964286 -3.5900009 -2.1378465 -3.6568286
-3.3838615 -3.7419763 -0.99254864 -2.7735734 -3.6029282 -0.74557894 -3.55585 -3.6716185

std.constant22 i1 [128, 32] scale=0.09240415 zero_point=0
00000000: 0807 0002 090b e9f6 0106 f01c fd0b f611
00000010: 13e5 10f2 f0fa 140b f2fd 0def 03ed 06fe
00000020: 0508 0003 0608 dbf8 0006 f226 ff0d f313
00000030: 0fdd 14f5 eefc 1809 f6fc 0de9 03e3 0401
00000040: 0604 0201 0909 eff6 0105 f114 fe09 f50f
00000050: 11eb 0ff4 f6fa 0e07 f5fb 07f2 02e9 05fe
00000060: 0f0b 0105 120f e2ee 040c eb1d fa16 ef1a
00000070: 18de 1bec eef2 1e10 edf5 0ddf 07d8 0bfd
00000080: 0406 0002 0505 eef7 0004 ef12 ff07 f60f
00000090: 14e9 0df3 f3fc 0d08 f7fc 08f6 04ee 0401
000000a0: 0a07 0205 090b e0f3 0209 f11e fe0d f613
000000b0: 10e1 12f0 eef6 190b f4fa 0aea 05e5 07fd
000000c0: 0b07 fd08 0f0e bef0 0009 e334 fa19 f12a
000000d0: 41cc 20e3 dcf7 5811 e7f8 06b0 069d 0700
000000e0: 0606 0004 0707 e8f7 0306 f119 fd08 f50f
000000f0: 12e6 0df6 f1fc 0e0a f6fa 0cf4 03ef 04fd
0.7392332 0.64682907 0.0 0.1848083 0.8316373 1.0164456 -2.1252954 -0.9240415
0.09240415 0.5544249 -1.4784664 2.5873163 -0.27721244 1.0164456 -0.9240415 1.5708705
1.7556789 -2.4949121 1.4784664 -1.2936581 -1.4784664 -0.5544249 1.848083 1.0164456
-1.2936581 -0.27721244 1.2012539 -1.5708705 0.27721244 -1.7556789 0.5544249 -0.1848083
0.46202075 0.7392332 0.0 0.27721244 0.5544249 0.7392332 -3.4189534 -0.7392332
0.0 0.5544249 -1.2936581 3.5113578 -0.09240415 1.2012539 -1.2012539 1.7556789
1.3860623 -3.2341452 1.848083 -1.0164456 -1.6632746 -0.3696166 2.2176995 0.8316373
-0.9240415 -0.3696166 1.2012539 -2.1252954 0.27721244 -2.6797204 0.3696166 0.09240415
0.5544249 0.3696166 0.1848083 0.09240415 0.8316373 0.8316373 -1.5708705 -0.9240415
0.09240415 0.46202075 -1.3860623 1.848083 -0.1848083 0.8316373 -1.0164456 1.3860623
1.5708705 -1.9404871 1.3860623 -1.1088498 -0.9240415 -0.5544249 1.2936581 0.64682907
-1.0164456 -0.46202075 0.64682907 -1.2936581 0.1848083 -2.1252954 0.46202075 -0.1848083
1.3860623 1.0164456 0.09240415 0.46202075 1.6632746 1.3860623 -2.7721245 -1.6632746
0.3696166 1.1088498 -1.9404871 2.6797204 -0.5544249 2.0328913 -1.5708705 2.4025078
2.2176995 -3.141741 2.4949121 -1.848083 -1.6632746 -1.2936581 2.7721245 1.4784664
-1.7556789 -1.0164456 1.2012539 -3.049337 0.64682907 -3.696166 1.0164456 -0.27721244
0.3696166 0.5544249 0.0 0.1848083 0.46202075 0.46202075 -1.6632746 -0.8316373
0.0 0.3696166 -1.5708705 1.6632746 -0.09240415 0.64682907 -0.9240415 1.3860623
1.848083 -2.1252954 1.2012539 -1.2012539 -1.2012539 -0.3696166 1.2012539 0.7392332
-0.8316373 -0.3696166 0.7392332 -0.9240415 0.3696166 -1.6632746 0.3696166 0.09240415
0.9240415 0.64682907 0.1848083 0.46202075 0.8316373 1.0164456 -2.9569328 -1.2012539
0.1848083 0.8316373 -1.3860623 2.7721245 -0.1848083 1.2012539 -0.9240415 1.7556789
1.4784664 -2.8645287 1.6632746 -1.4784664 -1.6632746 -0.9240415 2.3101037 1.0164456
-1.1088498 -0.5544249 0.9240415 -2.0328913 0.46202075 -2.4949121 0.64682907 -0.27721244
1.0164456 0.64682907 -0.27721244 0.7392332 1.3860623 1.2936581 -6.098674 -1.4784664
0.0 0.8316373 -2.6797204 4.8050156 -0.5544249 2.3101037 -1.3860623 3.8809743
6.00627 -4.8050156 2.9569328 -2.6797204 -3.3265493 -0.8316373 8.131565 1.5708705
-2.3101037 -0.7392332 0.5544249 -7.392332 0.5544249 -9.148011 0.64682907 0.0
0.5544249 0.5544249 0.0 0.3696166 0.64682907 0.64682907 -2.2176995 -0.8316373
0.27721244 0.5544249 -1.3860623 2.3101037 -0.27721244 0.7392332 -1.0164456 1.3860623
1.6632746 -2.4025078 1.2012539 -0.9240415 -1.3860623 -0.3696166 1.2936581 0.9240415
-0.9240415 -0.5544249 1.1088498 -1.1088498 0.27721244 -1.5708705 0.3696166 -0.27721244

std.constant23 i1 [128, 32] scale=0.047580134 zero_point=0
00000000: 08f2 f80c f30b 1103 fa02 1109 fdfa fe10
00000010: ff01 1002 fb00 08fc f6f6 05f2 fe06 0904
00000020: 00f0 fb08 ed04 1105 f305 0c06 01fd fe19
00000030: 00ff 1000 f604 fefc f9f4 04f5 fe03 0106
00000040: 09f3 f80a e80e 0b01 f3fc 0b09 01fc f906
00000050: f504 0f06 f5fd 0ff4 f2f7 04ed 0809 0802
00000060: fbf2 fd09 e20b 0b09 02f8 0c09 08f4 030e
00000070: f6f8 1603 edfa 1400 f1f5 09e8 000f 05fe
00000080: 0cee f213 ee08 0e04 fafe 0d12 fcfc fc0b
00000090: f90b 0d08 fc02 0bf3 f5f9 00f0 fd04 0c06
000000a0: 07e6 f015 ec05 1804 f200 1312 fef9 f717
000000b0: f90b 1404 fd07 0aee f5f0 01f1 fb08 1004
000000c0: db14 25d3 c320 e4f4 29e8 f3f3 1edf 21ed
000000d0: e5e0 13d6 d6e6 1927 e717 23db 002e e3e6
000000e0: 03ee f215 ee06 1105 f801 110d fff8 fb0e
000000f0: fa04 0f08 fb03 0cf7 f8f4 07f4 000a 0608
0.38064107 -0.6661219 -0.38064107 0.5709616 -0.6185417 0.5233815 0.80886227 0.1427404
-0.2854808 0.09516027 0.80886227 0.4282212 -0.1427404 -0.2854808 -0.09516027 0.76128215
-0.047580134 0.047580134 0.76128215 0.09516027 -0.23790067 0.0 0.38064107 -0.19032054
-0.47580135 -0.47580135 0.23790067 -0.6661219 -0.09516027 0.2854808 0.4282212 0.19032054
0.0 -0.76128215 -0.23790067 0.38064107 -0.9040226 0.19032054 0.80886227 0.23790067
-0.6185417 0.23790067 0.5709616 0.2854808 0.047580134 -0.1427404 -0.09516027 1.1895033
0.0 -0.047580134 0.76128215 0.0 -0.47580135 0.19032054 -0.09516027 -0.19032054
-0.33306095 -0.5709616 0.19032054 -0.5233815 -0.09516027 0.1427404 0.047580134 0.2854808
0.4282212 -0.6185417 -0.38064107 0.47580135 -1.1419232 0.6661219 0.5233815 0.047580134
-0.6185417 -0.19032054 0.5233815 0.4282212 0.047580134 -0.19032054 -0.33306095 0.2854808
-0.5233815 0.19032054 0.713702 0.2854808 -0.5233815 -0.1427404 0.713702 -0.5709616
-0.6661219 -0.4282212 0.19032054 -0.9040226 0.38064107 0.4282212 0.38064107 0.09516027
-0.23790067 -0.6661219 -0.1427404 0.4282212 -1.427404 0.5233815 0.5233815 0.4282212
0.09516027 -0.38064107 0.5709616 0.4282212 0.38064107 -0.5709616 0.1427404 0.6661219
-0.47580135 -0.38064107 1.046763 0.1427404 -0.9040226 -0.2854808 0.9516027 0.0
-0.713702 -0.5233815 0.4282212 -1.1419232 0.0 0.713702 0.23790067 -0.09516027
0.5709616 -0.8564424 -0.6661219 0.9040226 -0.8564424 0.38064107 0.6661219 0.19032054
-0.2854808 -0.09516027 0.6185417 0.8564424 -0.19032054 -0.19032054 -0.19032054 0.5233815
-0.33306095 0.5233815 0.6185417 0.38064107 -0.19032054 0.09516027 0.5233815 -0.6185417
-0.5233815 -0.33306095 0.0 -0.76128215 -0.1427404 0.19032054 0.5709616 0.2854808
0.33306095 -1.2370834 -0.76128215 0.9991828 -0.9516027 0.23790067 1.1419232 0.19032054
-0.6661219 0.0 0.9040226 0.8564424 -0.09516027 -0.33306095 -0.4282212 1.0943431
-0.33306095 0.5233815 0.9516027 0.19032054 -0.1427404 0.33306095 0.47580135 -0.8564424
-0.5233815 -0.76128215 0.047580134 -0.713702 -0.23790067 0.38064107 0.76128215 0.19032054
-1.7604649 0.9516027 1.7604649 -2.1411061 -2.902388 1.5225643 -1.3322438 -0.5709616
1.9507855 -1.1419232 -0.6185417 -0.6185417 1.427404 -1.5701444 1.5701444 -0.9040226
-1.2846637 -1.5225643 0.9040226 -1.9983656 -1.9983656 -1.2370834 1.1895033 1.8556253
-1.1895033 1.0943431 1.6653047 -1.7604649 0.0 2.1886861 -1.3798239 -1.2370834
0.1427404 -0.8564424 -0.6661219 0.9991828 -0.8564424 0.2854808 0.80886227 0.23790067
-0.38064107 0.047580134 0.80886227 0.6185417 -0.047580134 -0.38064107 -0.23790067 0.6661219
-0.2854808 0.19032054 0.713702 0.38064107 -0.23790067 0.1427404 0.5709616 -0.4282212
-0.38064107 -0.5709616 0.33306095 -0.5709616 0.0 0.47580135 0.2854808 0.38064107
